…
[2021-04-09 22:57:02]    INFO >> loaded 89154 examples from: ['/data/yanghe/ncc_data/codesearchnet/retrieval/data-mmap/all/valid.go.docstring_tokens', '/data/yanghe/ncc_data/codesearchnet/retrieval/data-mmap/all/valid.java.docstring_tokens', '/data/yanghe/ncc_data/codesearchnet/retrieval/data-mmap/all/valid.javascript.docstring_tokens', '/data/yanghe/ncc_data/codesearchnet/retrieval/data-mmap/all/valid.ruby.docstring_tokens', '/data/yanghe/ncc_data/codesearchnet/retrieval/data-mmap/all/valid.python.docstring_tokens', '/data/yanghe/ncc_data/codesearchnet/retrieval/data-mmap/all/valid.php.docstring_tokens'] (hybrid_retrieval.py:55, load_tokens_dataset())
[2021-04-09 22:57:02]    INFO >> NBOW(
  (src_encoders): ModuleDict(
    (go): NBOWEncoder(
      (embed): Embedding(10000, 128, padding_idx=0)
      (weight_layer): Linear(in_features=128, out_features=1, bias=False)
    )
    (java): NBOWEncoder(
      (embed): Embedding(10000, 128, padding_idx=0)
      (weight_layer): Linear(in_features=128, out_features=1, bias=False)
    )
    (javascript): NBOWEncoder(
      (embed): Embedding(10000, 128, padding_idx=0)
      (weight_layer): Linear(in_features=128, out_features=1, bias=False)
    )
    (ruby): NBOWEncoder(
      (embed): Embedding(10000, 128, padding_idx=0)
      (weight_layer): Linear(in_features=128, out_features=1, bias=False)
    )
    (python): NBOWEncoder(
      (embed): Embedding(10000, 128, padding_idx=0)
      (weight_layer): Linear(in_features=128, out_features=1, bias=False)
    )
    (php): NBOWEncoder(
      (embed): Embedding(10000, 128, padding_idx=0)
      (weight_layer): Linear(in_features=128, out_features=1, bias=False)
    )
  )
  (tgt_encoders): NBOWEncoder(
    (embed): Embedding(10000, 128, padding_idx=0)
    (weight_layer): Linear(in_features=128, out_features=1, bias=False)
  )
) (train.py:223, single_main())
[2021-04-09 22:57:02]    INFO >> model nbow, criterion SearchCosineCriterion (train.py:224, single_main())
[2021-04-09 22:57:02]    INFO >> num. model params: 8960896 (num. trained: 8960896) (train.py:227, single_main())
[2021-04-09 22:57:21]    INFO >> training on 1 GPUs (train.py:233, single_main())
[2021-04-09 22:57:21]    INFO >> max tokens per GPU = None and max sentences per GPU = 1000 (train.py:236, single_main())
…
