…
[2021-04-05 05:35:07]    INFO >> loaded 44689 examples from: ['/mnt/wanyao/ncc_data/codexglue/code_to_text/completion/data-mmap/python', '/mnt/wanyao/ncc_data/codexglue/code_to_text/completion/data-mmap/ruby', '/mnt/wanyao/ncc_data/codexglue/code_to_text/completion/data-mmap/go', '/mnt/wanyao/ncc_data/codexglue/code_to_text/completion/data-mmap/php', '/mnt/wanyao/ncc_data/codexglue/code_to_text/completion/data-mmap/java', '/mnt/wanyao/ncc_data/codexglue/code_to_text/completion/data-mmap/javascript'] (multitask_completion.py:47, load_token_dataset())
[2021-04-05 05:35:07]    INFO >> GPT2(
  (decoder): TransformerDecoder(
    (embed_tokens): Embedding(50000, 300, padding_idx=0)
    (layers): ModuleList(
      (0): TransformerDecoderLayer(
        (in_layer_norm): LayerNorm((300,), eps=1e-08, elementwise_affine=True)
        (attention): MultiheadAttention(
          (k_proj): Linear(in_features=300, out_features=300, bias=True)
          (v_proj): Linear(in_features=300, out_features=300, bias=True)
          (q_proj): Linear(in_features=300, out_features=300, bias=True)
          (out_proj): Linear(in_features=300, out_features=300, bias=True)
        )
        (ff_layer_norm): LayerNorm((300,), eps=1e-08, elementwise_affine=True)
        (fc1): Linear(in_features=300, out_features=1200, bias=True)
        (fc2): Linear(in_features=1200, out_features=300, bias=True)
      )
      (1): TransformerDecoderLayer(
        (in_layer_norm): LayerNorm((300,), eps=1e-08, elementwise_affine=True)
        (attention): MultiheadAttention(
          (k_proj): Linear(in_features=300, out_features=300, bias=True)
          (v_proj): Linear(in_features=300, out_features=300, bias=True)
          (q_proj): Linear(in_features=300, out_features=300, bias=True)
          (out_proj): Linear(in_features=300, out_features=300, bias=True)
        )
        (ff_layer_norm): LayerNorm((300,), eps=1e-08, elementwise_affine=True)
        (fc1): Linear(in_features=300, out_features=1200, bias=True)
        (fc2): Linear(in_features=1200, out_features=300, bias=True)
      )
      (2): TransformerDecoderLayer(
        (in_layer_norm): LayerNorm((300,), eps=1e-08, elementwise_affine=True)
        (attention): MultiheadAttention(
          (k_proj): Linear(in_features=300, out_features=300, bias=True)
          (v_proj): Linear(in_features=300, out_features=300, bias=True)
          (q_proj): Linear(in_features=300, out_features=300, bias=True)
          (out_proj): Linear(in_features=300, out_features=300, bias=True)
        )
        (ff_layer_norm): LayerNorm((300,), eps=1e-08, elementwise_affine=True)
        (fc1): Linear(in_features=300, out_features=1200, bias=True)
        (fc2): Linear(in_features=1200, out_features=300, bias=True)
      )
      (3): TransformerDecoderLayer(
        (in_layer_norm): LayerNorm((300,), eps=1e-08, elementwise_affine=True)
        (attention): MultiheadAttention(
          (k_proj): Linear(in_features=300, out_features=300, bias=True)
          (v_proj): Linear(in_features=300, out_features=300, bias=True)
          (q_proj): Linear(in_features=300, out_features=300, bias=True)
          (out_proj): Linear(in_features=300, out_features=300, bias=True)
        )
        (ff_layer_norm): LayerNorm((300,), eps=1e-08, elementwise_affine=True)
        (fc1): Linear(in_features=300, out_features=1200, bias=True)
        (fc2): Linear(in_features=1200, out_features=300, bias=True)
      )
      (4): TransformerDecoderLayer(
        (in_layer_norm): LayerNorm((300,), eps=1e-08, elementwise_affine=True)
        (attention): MultiheadAttention(
          (k_proj): Linear(in_features=300, out_features=300, bias=True)
          (v_proj): Linear(in_features=300, out_features=300, bias=True)
          (q_proj): Linear(in_features=300, out_features=300, bias=True)
          (out_proj): Linear(in_features=300, out_features=300, bias=True)
        )
        (ff_layer_norm): LayerNorm((300,), eps=1e-08, elementwise_affine=True)
        (fc1): Linear(in_features=300, out_features=1200, bias=True)
        (fc2): Linear(in_features=1200, out_features=300, bias=True)
      )
      (5): TransformerDecoderLayer(
        (in_layer_norm): LayerNorm((300,), eps=1e-08, elementwise_affine=True)
        (attention): MultiheadAttention(
          (k_proj): Linear(in_features=300, out_features=300, bias=True)
          (v_proj): Linear(in_features=300, out_features=300, bias=True)
          (q_proj): Linear(in_features=300, out_features=300, bias=True)
          (out_proj): Linear(in_features=300, out_features=300, bias=True)
        )
        (ff_layer_norm): LayerNorm((300,), eps=1e-08, elementwise_affine=True)
        (fc1): Linear(in_features=300, out_features=1200, bias=True)
        (fc2): Linear(in_features=1200, out_features=300, bias=True)
      )
    )
    (out_layer_norm): LayerNorm((300,), eps=1e-08, elementwise_affine=True)
  )
) (train.py:212, single_main())
[2021-04-05 05:35:07]    INFO >> model completion_gpt2, criterion CompletionCrossEntropyCriterion (train.py:213, single_main())
[2021-04-05 05:35:07]    INFO >> num. model params: 23076864 (num. trained: 23076864) (train.py:214, single_main())
[2021-04-05 05:35:08]    INFO >> training on 4 GPUs (train.py:221, single_main())
…
