…
l_overrides': '{}', 'checkpoint_suffix': '', 'max_sentences_eval': 64}} (train.py:201, single_main())
[2021-04-04 02:04:51]    INFO >> [code_tokens] dictionary: 50000 types (completion.py:101, setup_task())
[2021-04-04 02:04:51]    INFO >> Truncate dataset into max length: 513 (completion.py:41, load_token_dataset())
[2021-04-04 02:04:51]    INFO >> loaded 13914 examples from: /mnt/wanyao/ncc_data/codexglue/code_to_text/completion/data-mmap/python/valid.code_tokens (completion.py:42, load_token_dataset())
[2021-04-04 02:04:52]    INFO >> GPT2(
  (decoder): TransformerDecoder(
    (embed_tokens): Embedding(50000, 300, padding_idx=0)
    (layers): ModuleList(
      (0): TransformerDecoderLayer(
        (in_layer_norm): LayerNorm((300,), eps=1e-08, elementwise_affine=True)
        (attention): MultiheadAttention(
          (k_proj): Linear(in_features=300, out_features=300, bias=True)
          (v_proj): Linear(in_features=300, out_features=300, bias=True)
          (q_proj): Linear(in_features=300, out_features=300, bias=True)
          (out_proj): Linear(in_features=300, out_features=300, bias=True)
        )
        (ff_layer_norm): LayerNorm((300,), eps=1e-08, elementwise_affine=True)
        (fc1): Linear(in_features=300, out_features=1200, bias=True)
        (fc2): Linear(in_features=1200, out_features=300, bias=True)
      )
      (1): TransformerDecoderLayer(
        (in_layer_norm): LayerNorm((300,), eps=1e-08, elementwise_affine=True)
        (attention): MultiheadAttention(
          (k_proj): Linear(in_features=300, out_features=300, bias=True)
          (v_proj): Linear(in_features=300, out_features=300, bias=True)
          (q_proj): Linear(in_features=300, out_features=300, bias=True)
          (out_proj): Linear(in_features=300, out_features=300, bias=True)
        )
        (ff_layer_norm): LayerNorm((300,), eps=1e-08, elementwise_affine=True)
        (fc1): Linear(in_features=300, out_features=1200, bias=True)
        (fc2): Linear(in_features=1200, out_features=300, bias=True)
      )
      (2): TransformerDecoderLayer(
        (in_layer_norm): LayerNorm((300,), eps=1e-08, elementwise_affine=True)
        (attention): MultiheadAttention(
          (k_proj): Linear(in_features=300, out_features=300, bias=True)
          (v_proj): Linear(in_features=300, out_features=300, bias=True)
          (q_proj): Linear(in_features=300, out_features=300, bias=True)
          (out_proj): Linear(in_features=300, out_features=300, bias=True)
        )
        (ff_layer_norm): LayerNorm((300,), eps=1e-08, elementwise_affine=True)
        (fc1): Linear(in_features=300, out_features=1200, bias=True)
        (fc2): Linear(in_features=1200, out_features=300, bias=True)
      )
      (3): TransformerDecoderLayer(
        (in_layer_norm): LayerNorm((300,), eps=1e-08, elementwise_affine=True)
        (attention): MultiheadAttention(
          (k_proj): Linear(in_features=300, out_features=300, bias=True)
          (v_proj): Linear(in_features=300, out_features=300, bias=True)
          (q_proj): Linear(in_features=300, out_features=300, bias=True)
          (out_proj): Linear(in_features=300, out_features=300, bias=True)
        )
        (ff_layer_norm): LayerNorm((300,), eps=1e-08, elementwise_affine=True)
        (fc1): Linear(in_features=300, out_features=1200, bias=True)
        (fc2): Linear(in_features=1200, out_features=300, bias=True)
      )
      (4): TransformerDecoderLayer(
        (in_layer_norm): LayerNorm((300,), eps=1e-08, elementwise_affine=True)
        (attention): MultiheadAttention(
          (k_proj): Linear(in_features=300, out_features=300, bias=True)
          (v_proj): Linear(in_features=300, out_features=300, bias=True)
          (q_proj): Linear(in_features=300, out_features=300, bias=True)
          (out_proj): Linear(in_features=300, out_features=300, bias=True)
        )
        (ff_layer_norm): LayerNorm((300,), eps=1e-08, elementwise_affine=True)
        (fc1): Linear(in_features=300, out_features=1200, bias=True)
        (fc2): Linear(in_features=1200, out_features=300, bias=True)
      )
      (5): TransformerDecoderLayer(
        (in_layer_norm): LayerNorm((300,), eps=1e-08, elementwise_affine=True)
        (attention): MultiheadAttention(
          (k_proj): Linear(in_features=300, out_features=300, bias=True)
          (v_proj): Linear(in_features=300, out_features=300, bias=True)
          (q_proj): Linear(in_features=300, out_features=300, bias=True)
          (out_proj): Linear(in_features=300, out_features=300, bias=True)
        )
        (ff_layer_norm): LayerNorm((300,), eps=1e-08, elementwise_affine=True)
        (fc1): Linear(in_features=300, out_features=1200, bias=True)
        (fc2): Linear(in_features=1200, out_features=300, bias=True)
      )
    )
    (out_layer_norm): LayerNorm((300,), eps=1e-08, elementwise_affine=True)
  )
) (train.py:212, single_main())
[2021-04-04 02:04:52]    INFO >> model completion_gpt2, criterion CompletionCrossEntropyCriterion (train.py:213, single_main())
[2021-04-04 02:04:52]    INFO >> num. model params: 23076864 (num. trained: 23076864) (train.py:214, single_main())
[2021-04-04 02:04:52]    INFO >> training on 4 GPUs (train.py:221, single_main())
…
