…
[2021-03-22 15:51:40]    INFO >> [code_tokens] dictionary: 50000 types (completion.py:97, setup_task())
[2021-03-22 15:51:40]    INFO >> [code_tokens] dictionary: 19 types (completion.py:101, setup_task())
[2021-03-22 15:51:40]    INFO >> loaded 122521 examples from: /home/wanyao/.ncc/raw_py150/completion/data-mmap/test.code_tokens (completion.py:44, load_token_dataset())
[2021-03-22 15:51:40]    INFO >> loaded 122521 examples from: /home/wanyao/.ncc/raw_py150/completion/data-mmap/test.code_types (completion.py:58, load_token_dataset())
[2021-03-22 15:51:41]    INFO >> GPT2(
  (decoder): TransformerDecoder(
    (embed_tokens): Embedding(50000, 300, padding_idx=0)
    (layers): ModuleList(
      (0): TransformerDecoderLayer(
        (in_layer_norm): LayerNorm()
        (attention): MultiheadAttention(
          (k_proj): Linear(in_features=300, out_features=300, bias=True)
          (v_proj): Linear(in_features=300, out_features=300, bias=True)
          (q_proj): Linear(in_features=300, out_features=300, bias=True)
          (out_proj): Linear(in_features=300, out_features=300, bias=True)
        )
        (ff_layer_norm): LayerNorm()
        (fc1): Linear(in_features=300, out_features=1200, bias=True)
        (fc2): Linear(in_features=1200, out_features=300, bias=True)
      )
      (1): TransformerDecoderLayer(
        (in_layer_norm): LayerNorm()
        (attention): MultiheadAttention(
          (k_proj): Linear(in_features=300, out_features=300, bias=True)
          (v_proj): Linear(in_features=300, out_features=300, bias=True)
          (q_proj): Linear(in_features=300, out_features=300, bias=True)
          (out_proj): Linear(in_features=300, out_features=300, bias=True)
        )
        (ff_layer_norm): LayerNorm()
        (fc1): Linear(in_features=300, out_features=1200, bias=True)
        (fc2): Linear(in_features=1200, out_features=300, bias=True)
      )
      (2): TransformerDecoderLayer(
        (in_layer_norm): LayerNorm()
        (attention): MultiheadAttention(
          (k_proj): Linear(in_features=300, out_features=300, bias=True)
          (v_proj): Linear(in_features=300, out_features=300, bias=True)
          (q_proj): Linear(in_features=300, out_features=300, bias=True)
          (out_proj): Linear(in_features=300, out_features=300, bias=True)
        )
        (ff_layer_norm): LayerNorm()
        (fc1): Linear(in_features=300, out_features=1200, bias=True)
        (fc2): Linear(in_features=1200, out_features=300, bias=True)
      )
      (3): TransformerDecoderLayer(
        (in_layer_norm): LayerNorm()
        (attention): MultiheadAttention(
          (k_proj): Linear(in_features=300, out_features=300, bias=True)
          (v_proj): Linear(in_features=300, out_features=300, bias=True)
          (q_proj): Linear(in_features=300, out_features=300, bias=True)
          (out_proj): Linear(in_features=300, out_features=300, bias=True)
        )
        (ff_layer_norm): LayerNorm()
        (fc1): Linear(in_features=300, out_features=1200, bias=True)
        (fc2): Linear(in_features=1200, out_features=300, bias=True)
      )
      (4): TransformerDecoderLayer(
        (in_layer_norm): LayerNorm()
        (attention): MultiheadAttention(
          (k_proj): Linear(in_features=300, out_features=300, bias=True)
          (v_proj): Linear(in_features=300, out_features=300, bias=True)
          (q_proj): Linear(in_features=300, out_features=300, bias=True)
          (out_proj): Linear(in_features=300, out_features=300, bias=True)
        )
        (ff_layer_norm): LayerNorm()
        (fc1): Linear(in_features=300, out_features=1200, bias=True)
        (fc2): Linear(in_features=1200, out_features=300, bias=True)
      )
      (5): TransformerDecoderLayer(
        (in_layer_norm): LayerNorm()
        (attention): MultiheadAttention(
          (k_proj): Linear(in_features=300, out_features=300, bias=True)
          (v_proj): Linear(in_features=300, out_features=300, bias=True)
          (q_proj): Linear(in_features=300, out_features=300, bias=True)
          (out_proj): Linear(in_features=300, out_features=300, bias=True)
        )
        (ff_layer_norm): LayerNorm()
        (fc1): Linear(in_features=300, out_features=1200, bias=True)
        (fc2): Linear(in_features=1200, out_features=300, bias=True)
      )
    )
    (out_layer_norm): LayerNorm()
  )
) (train.py:223, single_main())
[2021-03-22 15:51:41]    INFO >> model completion_gpt2, criterion CompletionCrossEntropyCriterion (train.py:224, single_main())
[2021-03-22 15:51:41]    INFO >> num. model params: 22998006 (num. trained: 22998006) (train.py:227, single_main())
[2021-03-22 15:51:41]    INFO >> training on 4 GPUs (train.py:232, single_main())
[2021-03-22 15:51:41]    INFO >> max tokens per GPU = 100000.0 and max sentences per GPU = 32 (train.py:235, single_main())
…
