…
[2021-09-26 17:25:51]    INFO >> loaded 89154 examples from: ['/home/wanyao/ncc_data/codesearchnet/retrieval/data-mmap/all/valid.go.docstring_tokens', '/home/wanyao/ncc_data/codesearchnet/retrieval/data-mmap/all/valid.java.docstring_tokens', '/home/wanyao/ncc_data/codesearchnet/retrieval/data-mmap/all/valid.javascript.docstring_tokens', '/home/wanyao/ncc_data/codesearchnet/retrieval/data-mmap/all/valid.ruby.docstring_tokens', '/home/wanyao/ncc_data/codesearchnet/retrieval/data-mmap/all/valid.python.docstring_tokens', '/home/wanyao/ncc_data/codesearchnet/retrieval/data-mmap/all/valid.php.docstring_tokens'] (hybrid_retrieval.py:55, load_tokens_dataset())
[2021-09-26 17:25:51]    INFO >> SelfAttn(
  (src_encoders): ModuleDict(
    (go): SelfAttnEncoder(
      (embed): Embedding(10000, 128, padding_idx=0)
      (type_embed): Embedding(1, 128)
      (embed_layer_norm): LayerNorm((128,), eps=1e-08, elementwise_affine=True)
      (layers): ModuleList(
        (0): TransformerEncoderLayer(
          (self_attn): MultiheadAttention(
            (k_proj): Linear(in_features=128, out_features=128, bias=True)
            (v_proj): Linear(in_features=128, out_features=128, bias=True)
            (q_proj): Linear(in_features=128, out_features=128, bias=True)
            (out_proj): Linear(in_features=128, out_features=128, bias=True)
          )
          (self_attn_layer_norm): LayerNorm((128,), eps=1e-08, elementwise_affine=True)
          (fc1): Linear(in_features=128, out_features=512, bias=True)
          (fc2): Linear(in_features=512, out_features=128, bias=True)
          (ff_layer_norm): LayerNorm((128,), eps=1e-08, elementwise_affine=True)
        )
        (1): TransformerEncoderLayer(
          (self_attn): MultiheadAttention(
            (k_proj): Linear(in_features=128, out_features=128, bias=True)
            (v_proj): Linear(in_features=128, out_features=128, bias=True)
            (q_proj): Linear(in_features=128, out_features=128, bias=True)
            (out_proj): Linear(in_features=128, out_features=128, bias=True)
          )
          (self_attn_layer_norm): LayerNorm((128,), eps=1e-08, elementwise_affine=True)
          (fc1): Linear(in_features=128, out_features=512, bias=True)
          (fc2): Linear(in_features=512, out_features=128, bias=True)
          (ff_layer_norm): LayerNorm((128,), eps=1e-08, elementwise_affine=True)
        )
        (2): TransformerEncoderLayer(
          (self_attn): MultiheadAttention(
            (k_proj): Linear(in_features=128, out_features=128, bias=True)
            (v_proj): Linear(in_features=128, out_features=128, bias=True)
            (q_proj): Linear(in_features=128, out_features=128, bias=True)
            (out_proj): Linear(in_features=128, out_features=128, bias=True)
          )
          (self_attn_layer_norm): LayerNorm((128,), eps=1e-08, elementwise_affine=True)
          (fc1): Linear(in_features=128, out_features=512, bias=True)
          (fc2): Linear(in_features=512, out_features=128, bias=True)
          (ff_layer_norm): LayerNorm((128,), eps=1e-08, elementwise_affine=True)
        )
      )
      (weight_layer): Linear(in_features=128, out_features=1, bias=False)
    )
    (java): SelfAttnEncoder(
      (embed): Embedding(10000, 128, padding_idx=0)
      (type_embed): Embedding(1, 128)
      (embed_layer_norm): LayerNorm((128,), eps=1e-08, elementwise_affine=True)
      (layers): ModuleList(
        (0): TransformerEncoderLayer(
          (self_attn): MultiheadAttention(
            (k_proj): Linear(in_features=128, out_features=128, bias=True)
            (v_proj): Linear(in_features=128, out_features=128, bias=True)
            (q_proj): Linear(in_features=128, out_features=128, bias=True)
            (out_proj): Linear(in_features=128, out_features=128, bias=True)
          )
          (self_attn_layer_norm): LayerNorm((128,), eps=1e-08, elementwise_affine=True)
          (fc1): Linear(in_features=128, out_features=512, bias=True)
          (fc2): Linear(in_features=512, out_features=128, bias=True)
          (ff_layer_norm): LayerNorm((128,), eps=1e-08, elementwise_affine=True)
        )
        (1): TransformerEncoderLayer(
          (self_attn): MultiheadAttention(
            (k_proj): Linear(in_features=128, out_features=128, bias=True)
            (v_proj): Linear(in_features=128, out_features=128, bias=True)
            (q_proj): Linear(in_features=128, out_features=128, bias=True)
            (out_proj): Linear(in_features=128, out_features=128, bias=True)
          )
          (self_attn_layer_norm): LayerNorm((128,), eps=1e-08, elementwise_affine=True)
          (fc1): Linear(in_features=128, out_features=512, bias=True)
          (fc2): Linear(in_features=512, out_features=128, bias=True)
          (ff_layer_norm): LayerNorm((128,), eps=1e-08, elementwise_affine=True)
        )
        (2): TransformerEncoderLayer(
          (self_attn): MultiheadAttention(
            (k_proj): Linear(in_features=128, out_features=128, bias=True)
            (v_proj): Linear(in_features=128, out_features=128, bias=True)
            (q_proj): Linear(in_features=128, out_features=128, bias=True)
            (out_proj): Linear(in_features=128, out_features=128, bias=True)
          )
          (self_attn_layer_norm): LayerNorm((128,), eps=1e-08, elementwise_affine=True)
          (fc1): Linear(in_features=128, out_features=512, bias=True)
          (fc2): Linear(in_features=512, out_features=128, bias=True)
          (ff_layer_norm): LayerNorm((128,), eps=1e-08, elementwise_affine=True)
        )
      )
      (weight_layer): Linear(in_features=128, out_features=1, bias=False)
    )
    (javascript): SelfAttnEncoder(
      (embed): Embedding(10000, 128, padding_idx=0)
      (type_embed): Embedding(1, 128)
      (embed_layer_norm): LayerNorm((128,), eps=1e-08, elementwise_affine=True)
      (layers): ModuleList(
        (0): TransformerEncoderLayer(
          (self_attn): MultiheadAttention(
            (k_proj): Linear(in_features=128, out_features=128, bias=True)
            (v_proj): Linear(in_features=128, out_features=128, bias=True)
            (q_proj): Linear(in_features=128, out_features=128, bias=True)
            (out_proj): Linear(in_features=128, out_features=128, bias=True)
          )
          (self_attn_layer_norm): LayerNorm((128,), eps=1e-08, elementwise_affine=True)
          (fc1): Linear(in_features=128, out_features=512, bias=True)
          (fc2): Linear(in_features=512, out_features=128, bias=True)
          (ff_layer_norm): LayerNorm((128,), eps=1e-08, elementwise_affine=True)
        )
        (1): TransformerEncoderLayer(
          (self_attn): MultiheadAttention(
            (k_proj): Linear(in_features=128, out_features=128, bias=True)
            (v_proj): Linear(in_features=128, out_features=128, bias=True)
            (q_proj): Linear(in_features=128, out_features=128, bias=True)
            (out_proj): Linear(in_features=128, out_features=128, bias=True)
          )
          (self_attn_layer_norm): LayerNorm((128,), eps=1e-08, elementwise_affine=True)
          (fc1): Linear(in_features=128, out_features=512, bias=True)
          (fc2): Linear(in_features=512, out_features=128, bias=True)
          (ff_layer_norm): LayerNorm((128,), eps=1e-08, elementwise_affine=True)
        )
        (2): TransformerEncoderLayer(
          (self_attn): MultiheadAttention(
            (k_proj): Linear(in_features=128, out_features=128, bias=True)
            (v_proj): Linear(in_features=128, out_features=128, bias=True)
            (q_proj): Linear(in_features=128, out_features=128, bias=True)
            (out_proj): Linear(in_features=128, out_features=128, bias=True)
          )
          (self_attn_layer_norm): LayerNorm((128,), eps=1e-08, elementwise_affine=True)
          (fc1): Linear(in_features=128, out_features=512, bias=True)
          (fc2): Linear(in_features=512, out_features=128, bias=True)
          (ff_layer_norm): LayerNorm((128,), eps=1e-08, elementwise_affine=True)
        )
      )
      (weight_layer): Linear(in_features=128, out_features=1, bias=False)
    )
    (ruby): SelfAttnEncoder(
      (embed): Embedding(10000, 128, padding_idx=0)
      (type_embed): Embedding(1, 128)
      (embed_layer_norm): LayerNorm((128,), eps=1e-08, elementwise_affine=True)
      (layers): ModuleList(
        (0): TransformerEncoderLayer(
          (self_attn): MultiheadAttention(
            (k_proj): Linear(in_features=128, out_features=128, bias=True)
            (v_proj): Linear(in_features=128, out_features=128, bias=True)
            (q_proj): Linear(in_features=128, out_features=128, bias=True)
            (out_proj): Linear(in_features=128, out_features=128, bias=True)
          )
          (self_attn_layer_norm): LayerNorm((128,), eps=1e-08, elementwise_affine=True)
          (fc1): Linear(in_features=128, out_features=512, bias=True)
          (fc2): Linear(in_features=512, out_features=128, bias=True)
          (ff_layer_norm): LayerNorm((128,), eps=1e-08, elementwise_affine=True)
        )
        (1): TransformerEncoderLayer(
          (self_attn): MultiheadAttention(
            (k_proj): Linear(in_features=128, out_features=128, bias=True)
            (v_proj): Linear(in_features=128, out_features=128, bias=True)
            (q_proj): Linear(in_features=128, out_features=128, bias=True)
            (out_proj): Linear(in_features=128, out_features=128, bias=True)
          )
          (self_attn_layer_norm): LayerNorm((128,), eps=1e-08, elementwise_affine=True)
          (fc1): Linear(in_features=128, out_features=512, bias=True)
          (fc2): Linear(in_features=512, out_features=128, bias=True)
          (ff_layer_norm): LayerNorm((128,), eps=1e-08, elementwise_affine=True)
        )
        (2): TransformerEncoderLayer(
          (self_attn): MultiheadAttention(
            (k_proj): Linear(in_features=128, out_features=128, bias=True)
            (v_proj): Linear(in_features=128, out_features=128, bias=True)
            (q_proj): Linear(in_features=128, out_features=128, bias=True)
            (out_proj): Linear(in_features=128, out_features=128, bias=True)
          )
          (self_attn_layer_norm): LayerNorm((128,), eps=1e-08, elementwise_affine=True)
          (fc1): Linear(in_features=128, out_features=512, bias=True)
          (fc2): Linear(in_features=512, out_features=128, bias=True)
          (ff_layer_norm): LayerNorm((128,), eps=1e-08, elementwise_affine=True)
        )
      )
      (weight_layer): Linear(in_features=128, out_features=1, bias=False)
    )
    (python): SelfAttnEncoder(
      (embed): Embedding(10000, 128, padding_idx=0)
      (type_embed): Embedding(1, 128)
      (embed_layer_norm): LayerNorm((128,), eps=1e-08, elementwise_affine=True)
      (layers): ModuleList(
        (0): TransformerEncoderLayer(
          (self_attn): MultiheadAttention(
            (k_proj): Linear(in_features=128, out_features=128, bias=True)
            (v_proj): Linear(in_features=128, out_features=128, bias=True)
            (q_proj): Linear(in_features=128, out_features=128, bias=True)
            (out_proj): Linear(in_features=128, out_features=128, bias=True)
          )
          (self_attn_layer_norm): LayerNorm((128,), eps=1e-08, elementwise_affine=True)
          (fc1): Linear(in_features=128, out_features=512, bias=True)
          (fc2): Linear(in_features=512, out_features=128, bias=True)
          (ff_layer_norm): LayerNorm((128,), eps=1e-08, elementwise_affine=True)
        )
        (1): TransformerEncoderLayer(
          (self_attn): MultiheadAttention(
            (k_proj): Linear(in_features=128, out_features=128, bias=True)
            (v_proj): Linear(in_features=128, out_features=128, bias=True)
            (q_proj): Linear(in_features=128, out_features=128, bias=True)
            (out_proj): Linear(in_features=128, out_features=128, bias=True)
          )
          (self_attn_layer_norm): LayerNorm((128,), eps=1e-08, elementwise_affine=True)
          (fc1): Linear(in_features=128, out_features=512, bias=True)
          (fc2): Linear(in_features=512, out_features=128, bias=True)
          (ff_layer_norm): LayerNorm((128,), eps=1e-08, elementwise_affine=True)
        )
        (2): TransformerEncoderLayer(
          (self_attn): MultiheadAttention(
            (k_proj): Linear(in_features=128, out_features=128, bias=True)
            (v_proj): Linear(in_features=128, out_features=128, bias=True)
            (q_proj): Linear(in_features=128, out_features=128, bias=True)
            (out_proj): Linear(in_features=128, out_features=128, bias=True)
          )
          (self_attn_layer_norm): LayerNorm((128,), eps=1e-08, elementwise_affine=True)
          (fc1): Linear(in_features=128, out_features=512, bias=True)
          (fc2): Linear(in_features=512, out_features=128, bias=True)
          (ff_layer_norm): LayerNorm((128,), eps=1e-08, elementwise_affine=True)
        )
      )
      (weight_layer): Linear(in_features=128, out_features=1, bias=False)
    )
    (php): SelfAttnEncoder(
      (embed): Embedding(10000, 128, padding_idx=0)
      (type_embed): Embedding(1, 128)
      (embed_layer_norm): LayerNorm((128,), eps=1e-08, elementwise_affine=True)
      (layers): ModuleList(
        (0): TransformerEncoderLayer(
          (self_attn): MultiheadAttention(
            (k_proj): Linear(in_features=128, out_features=128, bias=True)
            (v_proj): Linear(in_features=128, out_features=128, bias=True)
            (q_proj): Linear(in_features=128, out_features=128, bias=True)
            (out_proj): Linear(in_features=128, out_features=128, bias=True)
          )
          (self_attn_layer_norm): LayerNorm((128,), eps=1e-08, elementwise_affine=True)
          (fc1): Linear(in_features=128, out_features=512, bias=True)
          (fc2): Linear(in_features=512, out_features=128, bias=True)
          (ff_layer_norm): LayerNorm((128,), eps=1e-08, elementwise_affine=True)
        )
        (1): TransformerEncoderLayer(
          (self_attn): MultiheadAttention(
            (k_proj): Linear(in_features=128, out_features=128, bias=True)
            (v_proj): Linear(in_features=128, out_features=128, bias=True)
            (q_proj): Linear(in_features=128, out_features=128, bias=True)
            (out_proj): Linear(in_features=128, out_features=128, bias=True)
          )
          (self_attn_layer_norm): LayerNorm((128,), eps=1e-08, elementwise_affine=True)
          (fc1): Linear(in_features=128, out_features=512, bias=True)
          (fc2): Linear(in_features=512, out_features=128, bias=True)
          (ff_layer_norm): LayerNorm((128,), eps=1e-08, elementwise_affine=True)
        )
        (2): TransformerEncoderLayer(
          (self_attn): MultiheadAttention(
            (k_proj): Linear(in_features=128, out_features=128, bias=True)
            (v_proj): Linear(in_features=128, out_features=128, bias=True)
            (q_proj): Linear(in_features=128, out_features=128, bias=True)
            (out_proj): Linear(in_features=128, out_features=128, bias=True)
          )
          (self_attn_layer_norm): LayerNorm((128,), eps=1e-08, elementwise_affine=True)
          (fc1): Linear(in_features=128, out_features=512, bias=True)
          (fc2): Linear(in_features=512, out_features=128, bias=True)
          (ff_layer_norm): LayerNorm((128,), eps=1e-08, elementwise_affine=True)
        )
      )
      (weight_layer): Linear(in_features=128, out_features=1, bias=False)
    )
  )
  (tgt_encoders): SelfAttnEncoder(
    (embed): Embedding(10000, 128, padding_idx=0)
    (type_embed): Embedding(1, 128)
    (embed_layer_norm): LayerNorm((128,), eps=1e-08, elementwise_affine=True)
    (layers): ModuleList(
      (0): TransformerEncoderLayer(
        (self_attn): MultiheadAttention(
          (k_proj): Linear(in_features=128, out_features=128, bias=True)
          (v_proj): Linear(in_features=128, out_features=128, bias=True)
          (q_proj): Linear(in_features=128, out_features=128, bias=True)
          (out_proj): Linear(in_features=128, out_features=128, bias=True)
        )
        (self_attn_layer_norm): LayerNorm((128,), eps=1e-08, elementwise_affine=True)
        (fc1): Linear(in_features=128, out_features=512, bias=True)
        (fc2): Linear(in_features=512, out_features=128, bias=True)
        (ff_layer_norm): LayerNorm((128,), eps=1e-08, elementwise_affine=True)
      )
      (1): TransformerEncoderLayer(
        (self_attn): MultiheadAttention(
          (k_proj): Linear(in_features=128, out_features=128, bias=True)
          (v_proj): Linear(in_features=128, out_features=128, bias=True)
          (q_proj): Linear(in_features=128, out_features=128, bias=True)
          (out_proj): Linear(in_features=128, out_features=128, bias=True)
        )
        (self_attn_layer_norm): LayerNorm((128,), eps=1e-08, elementwise_affine=True)
        (fc1): Linear(in_features=128, out_features=512, bias=True)
        (fc2): Linear(in_features=512, out_features=128, bias=True)
        (ff_layer_norm): LayerNorm((128,), eps=1e-08, elementwise_affine=True)
      )
      (2): TransformerEncoderLayer(
        (self_attn): MultiheadAttention(
          (k_proj): Linear(in_features=128, out_features=128, bias=True)
          (v_proj): Linear(in_features=128, out_features=128, bias=True)
          (q_proj): Linear(in_features=128, out_features=128, bias=True)
          (out_proj): Linear(in_features=128, out_features=128, bias=True)
        )
        (self_attn_layer_norm): LayerNorm((128,), eps=1e-08, elementwise_affine=True)
        (fc1): Linear(in_features=128, out_features=512, bias=True)
        (fc2): Linear(in_features=512, out_features=128, bias=True)
        (ff_layer_norm): LayerNorm((128,), eps=1e-08, elementwise_affine=True)
      )
    )
    (weight_layer): Linear(in_features=128, out_features=1, bias=False)
  )
) (train.py:223, single_main())
[2021-09-26 17:25:51]    INFO >> model self_attn, criterion SearchSoftmaxCriterion (train.py:224, single_main())
[2021-09-26 17:25:51]    INFO >> num. model params: 13284736 (num. trained: 13284736) (train.py:225, single_main())
[2021-09-26 17:25:57]    INFO >> training on 1 GPUs (train.py:233, single_main())
[2021-09-26 17:25:57]    INFO >> max tokens per GPU = None and max sentences per GPU = 1000 (train.py:234, single_main())
…
