…
[2021-03-22 10:30:46]    INFO >> truncate valid.docstring_tokens to 30 (be_summarization.py:80, load_langpair_dataset())
[2021-03-22 10:30:46]    INFO >> loaded 18505 examples from: /mnt/wanyao/.ncc/python_wan/summarization/data-mmap/valid.code_tokens (be_summarization.py:89, load_langpair_dataset())
[2021-03-22 10:30:46]    INFO >> loaded 18505 examples from: /mnt/wanyao/.ncc/python_wan/summarization/data-mmap/valid.docstring_tokens (be_summarization.py:90, load_langpair_dataset())
[2021-03-22 10:30:47]    INFO >> NeuralTransformerModel(
  (encoder): NeuralTransformerEncoder(
    (embed_tokens): Embedding(50000, 512, padding_idx=0)
    (embed_positions): LearnedPositionalEmbedding(400, 512)
    (layers): ModuleList(
      (0): NeuralTransformerEncoderLayer(
        (self_attn): RelativeMultiheadAttention(
          (k_proj): Linear(in_features=512, out_features=512, bias=True)
          (v_proj): Linear(in_features=512, out_features=512, bias=True)
          (q_proj): Linear(in_features=512, out_features=512, bias=True)
          (out_proj): Linear(in_features=512, out_features=512, bias=True)
          (relative_position_keys): Embedding(65, 64)
          (relative_position_values): Embedding(65, 64)
        )
        (self_attn_layer_norm): LayerNorm()
        (fc1): Linear(in_features=512, out_features=2048, bias=True)
        (fc2): Linear(in_features=2048, out_features=512, bias=True)
        (ff_layer_norm): LayerNorm()
      )
      (1): NeuralTransformerEncoderLayer(
        (self_attn): RelativeMultiheadAttention(
          (k_proj): Linear(in_features=512, out_features=512, bias=True)
          (v_proj): Linear(in_features=512, out_features=512, bias=True)
          (q_proj): Linear(in_features=512, out_features=512, bias=True)
          (out_proj): Linear(in_features=512, out_features=512, bias=True)
          (relative_position_keys): Embedding(65, 64)
          (relative_position_values): Embedding(65, 64)
        )
        (self_attn_layer_norm): LayerNorm()
        (fc1): Linear(in_features=512, out_features=2048, bias=True)
        (fc2): Linear(in_features=2048, out_features=512, bias=True)
        (ff_layer_norm): LayerNorm()
      )
      (2): NeuralTransformerEncoderLayer(
        (self_attn): RelativeMultiheadAttention(
          (k_proj): Linear(in_features=512, out_features=512, bias=True)
          (v_proj): Linear(in_features=512, out_features=512, bias=True)
          (q_proj): Linear(in_features=512, out_features=512, bias=True)
          (out_proj): Linear(in_features=512, out_features=512, bias=True)
          (relative_position_keys): Embedding(65, 64)
          (relative_position_values): Embedding(65, 64)
        )
        (self_attn_layer_norm): LayerNorm()
        (fc1): Linear(in_features=512, out_features=2048, bias=True)
        (fc2): Linear(in_features=2048, out_features=512, bias=True)
        (ff_layer_norm): LayerNorm()
      )
      (3): NeuralTransformerEncoderLayer(
        (self_attn): RelativeMultiheadAttention(
          (k_proj): Linear(in_features=512, out_features=512, bias=True)
          (v_proj): Linear(in_features=512, out_features=512, bias=True)
          (q_proj): Linear(in_features=512, out_features=512, bias=True)
          (out_proj): Linear(in_features=512, out_features=512, bias=True)
          (relative_position_keys): Embedding(65, 64)
          (relative_position_values): Embedding(65, 64)
        )
        (self_attn_layer_norm): LayerNorm()
        (fc1): Linear(in_features=512, out_features=2048, bias=True)
        (fc2): Linear(in_features=2048, out_features=512, bias=True)
        (ff_layer_norm): LayerNorm()
      )
      (4): NeuralTransformerEncoderLayer(
        (self_attn): RelativeMultiheadAttention(
          (k_proj): Linear(in_features=512, out_features=512, bias=True)
          (v_proj): Linear(in_features=512, out_features=512, bias=True)
          (q_proj): Linear(in_features=512, out_features=512, bias=True)
          (out_proj): Linear(in_features=512, out_features=512, bias=True)
          (relative_position_keys): Embedding(65, 64)
          (relative_position_values): Embedding(65, 64)
        )
        (self_attn_layer_norm): LayerNorm()
        (fc1): Linear(in_features=512, out_features=2048, bias=True)
        (fc2): Linear(in_features=2048, out_features=512, bias=True)
        (ff_layer_norm): LayerNorm()
      )
      (5): NeuralTransformerEncoderLayer(
        (self_attn): RelativeMultiheadAttention(
          (k_proj): Linear(in_features=512, out_features=512, bias=True)
          (v_proj): Linear(in_features=512, out_features=512, bias=True)
          (q_proj): Linear(in_features=512, out_features=512, bias=True)
          (out_proj): Linear(in_features=512, out_features=512, bias=True)
          (relative_position_keys): Embedding(65, 64)
          (relative_position_values): Embedding(65, 64)
        )
        (self_attn_layer_norm): LayerNorm()
        (fc1): Linear(in_features=512, out_features=2048, bias=True)
        (fc2): Linear(in_features=2048, out_features=512, bias=True)
        (ff_layer_norm): LayerNorm()
      )
    )
  )
  (decoder): NeuralTransformerDecoder(
    (embed_tokens): Embedding(30000, 512, padding_idx=0)
    (embed_positions): LearnedPositionalEmbedding(32, 512)
    (layers): ModuleList(
      (0): NueralTransformerDecoderLayer(
        (self_attn): RelativeMultiheadAttention(
          (k_proj): Linear(in_features=512, out_features=512, bias=True)
          (v_proj): Linear(in_features=512, out_features=512, bias=True)
          (q_proj): Linear(in_features=512, out_features=512, bias=True)
          (out_proj): Linear(in_features=512, out_features=512, bias=True)
        )
        (self_attn_layer_norm): LayerNorm()
        (encoder_attn): RelativeMultiheadAttention(
          (k_proj): Linear(in_features=512, out_features=512, bias=True)
          (v_proj): Linear(in_features=512, out_features=512, bias=True)
          (q_proj): Linear(in_features=512, out_features=512, bias=True)
          (out_proj): Linear(in_features=512, out_features=512, bias=True)
        )
        (encoder_attn_layer_norm): LayerNorm()
        (fc1): Linear(in_features=512, out_features=2048, bias=True)
        (fc2): Linear(in_features=2048, out_features=512, bias=True)
        (ff_layer_norm): LayerNorm()
      )
      (1): NueralTransformerDecoderLayer(
        (self_attn): RelativeMultiheadAttention(
          (k_proj): Linear(in_features=512, out_features=512, bias=True)
          (v_proj): Linear(in_features=512, out_features=512, bias=True)
          (q_proj): Linear(in_features=512, out_features=512, bias=True)
          (out_proj): Linear(in_features=512, out_features=512, bias=True)
        )
        (self_attn_layer_norm): LayerNorm()
        (encoder_attn): RelativeMultiheadAttention(
          (k_proj): Linear(in_features=512, out_features=512, bias=True)
          (v_proj): Linear(in_features=512, out_features=512, bias=True)
          (q_proj): Linear(in_features=512, out_features=512, bias=True)
          (out_proj): Linear(in_features=512, out_features=512, bias=True)
        )
        (encoder_attn_layer_norm): LayerNorm()
        (fc1): Linear(in_features=512, out_features=2048, bias=True)
        (fc2): Linear(in_features=2048, out_features=512, bias=True)
        (ff_layer_norm): LayerNorm()
      )
      (2): NueralTransformerDecoderLayer(
        (self_attn): RelativeMultiheadAttention(
          (k_proj): Linear(in_features=512, out_features=512, bias=True)
          (v_proj): Linear(in_features=512, out_features=512, bias=True)
          (q_proj): Linear(in_features=512, out_features=512, bias=True)
          (out_proj): Linear(in_features=512, out_features=512, bias=True)
        )
        (self_attn_layer_norm): LayerNorm()
        (encoder_attn): RelativeMultiheadAttention(
          (k_proj): Linear(in_features=512, out_features=512, bias=True)
          (v_proj): Linear(in_features=512, out_features=512, bias=True)
          (q_proj): Linear(in_features=512, out_features=512, bias=True)
          (out_proj): Linear(in_features=512, out_features=512, bias=True)
        )
        (encoder_attn_layer_norm): LayerNorm()
        (fc1): Linear(in_features=512, out_features=2048, bias=True)
        (fc2): Linear(in_features=2048, out_features=512, bias=True)
        (ff_layer_norm): LayerNorm()
      )
      (3): NueralTransformerDecoderLayer(
        (self_attn): RelativeMultiheadAttention(
          (k_proj): Linear(in_features=512, out_features=512, bias=True)
          (v_proj): Linear(in_features=512, out_features=512, bias=True)
          (q_proj): Linear(in_features=512, out_features=512, bias=True)
          (out_proj): Linear(in_features=512, out_features=512, bias=True)
        )
        (self_attn_layer_norm): LayerNorm()
        (encoder_attn): RelativeMultiheadAttention(
          (k_proj): Linear(in_features=512, out_features=512, bias=True)
          (v_proj): Linear(in_features=512, out_features=512, bias=True)
          (q_proj): Linear(in_features=512, out_features=512, bias=True)
          (out_proj): Linear(in_features=512, out_features=512, bias=True)
        )
        (encoder_attn_layer_norm): LayerNorm()
        (fc1): Linear(in_features=512, out_features=2048, bias=True)
        (fc2): Linear(in_features=2048, out_features=512, bias=True)
        (ff_layer_norm): LayerNorm()
      )
      (4): NueralTransformerDecoderLayer(
        (self_attn): RelativeMultiheadAttention(
          (k_proj): Linear(in_features=512, out_features=512, bias=True)
          (v_proj): Linear(in_features=512, out_features=512, bias=True)
          (q_proj): Linear(in_features=512, out_features=512, bias=True)
          (out_proj): Linear(in_features=512, out_features=512, bias=True)
        )
        (self_attn_layer_norm): LayerNorm()
        (encoder_attn): RelativeMultiheadAttention(
          (k_proj): Linear(in_features=512, out_features=512, bias=True)
          (v_proj): Linear(in_features=512, out_features=512, bias=True)
          (q_proj): Linear(in_features=512, out_features=512, bias=True)
          (out_proj): Linear(in_features=512, out_features=512, bias=True)
        )
        (encoder_attn_layer_norm): LayerNorm()
        (fc1): Linear(in_features=512, out_features=2048, bias=True)
        (fc2): Linear(in_features=2048, out_features=512, bias=True)
        (ff_layer_norm): LayerNorm()
      )
      (5): NueralTransformerDecoderLayer(
        (self_attn): RelativeMultiheadAttention(
          (k_proj): Linear(in_features=512, out_features=512, bias=True)
          (v_proj): Linear(in_features=512, out_features=512, bias=True)
          (q_proj): Linear(in_features=512, out_features=512, bias=True)
          (out_proj): Linear(in_features=512, out_features=512, bias=True)
        )
        (self_attn_layer_norm): LayerNorm()
        (encoder_attn): RelativeMultiheadAttention(
          (k_proj): Linear(in_features=512, out_features=512, bias=True)
          (v_proj): Linear(in_features=512, out_features=512, bias=True)
          (q_proj): Linear(in_features=512, out_features=512, bias=True)
          (out_proj): Linear(in_features=512, out_features=512, bias=True)
        )
        (encoder_attn_layer_norm): LayerNorm()
        (fc1): Linear(in_features=512, out_features=2048, bias=True)
        (fc2): Linear(in_features=2048, out_features=512, bias=True)
        (ff_layer_norm): LayerNorm()
      )
    )
  )
) (train.py:221, single_main())
[2021-03-22 10:30:47]    INFO >> model neural_transformer, criterion NeuralTransformerCriterion (train.py:222, single_main())
[2021-03-22 10:30:48]    INFO >> num. model params: 85399600 (num. trained: 85399600) (train.py:223, single_main())
[2021-03-22 10:30:53]    INFO >> training on 1 GPUs (train.py:230, single_main())
[2021-03-22 10:30:53]    INFO >> max tokens per GPU = None and max sentences per GPU = 64 (train.py:231, single_main())
…
