…
[2021-04-20 03:39:25]    INFO >> loaded 44689 examples from: ['/data/yanghe/ncc_data/codexglue/code_to_text/retrieval/data-mmap/all/valid.go.docstring_tokens', '/data/yanghe/ncc_data/codexglue/code_to_text/retrieval/data-mmap/all/valid.java.docstring_tokens', '/data/yanghe/ncc_data/codexglue/code_to_text/retrieval/data-mmap/all/valid.javascript.docstring_tokens', '/data/yanghe/ncc_data/codexglue/code_to_text/retrieval/data-mmap/all/valid.ruby.docstring_tokens', '/data/yanghe/ncc_data/codexglue/code_to_text/retrieval/data-mmap/all/valid.python.docstring_tokens', '/data/yanghe/ncc_data/codexglue/code_to_text/retrieval/data-mmap/all/valid.php.docstring_tokens'] (hybrid_retrieval.py:55, load_tokens_dataset())
[2021-04-20 03:39:26]    INFO >> BiRNN(
  (src_encoders): ModuleDict(
    (go): RNNEncoder(
      (embed): Embedding(10000, 128)
      (weight_layer): Linear(in_features=128, out_features=1, bias=False)
      (rnn): LSTM(128, 64, num_layers=2, batch_first=True, dropout=0.2, bidirectional=True)
    )
    (java): RNNEncoder(
      (embed): Embedding(10000, 128)
      (weight_layer): Linear(in_features=128, out_features=1, bias=False)
      (rnn): LSTM(128, 64, num_layers=2, batch_first=True, dropout=0.2, bidirectional=True)
    )
    (javascript): RNNEncoder(
      (embed): Embedding(10000, 128)
      (weight_layer): Linear(in_features=128, out_features=1, bias=False)
      (rnn): LSTM(128, 64, num_layers=2, batch_first=True, dropout=0.2, bidirectional=True)
    )
    (ruby): RNNEncoder(
      (embed): Embedding(10000, 128)
      (weight_layer): Linear(in_features=128, out_features=1, bias=False)
      (rnn): LSTM(128, 64, num_layers=2, batch_first=True, dropout=0.2, bidirectional=True)
    )
    (python): RNNEncoder(
      (embed): Embedding(10000, 128)
      (weight_layer): Linear(in_features=128, out_features=1, bias=False)
      (rnn): LSTM(128, 64, num_layers=2, batch_first=True, dropout=0.2, bidirectional=True)
    )
    (php): RNNEncoder(
      (embed): Embedding(10000, 128)
      (weight_layer): Linear(in_features=128, out_features=1, bias=False)
      (rnn): LSTM(128, 64, num_layers=2, batch_first=True, dropout=0.2, bidirectional=True)
    )
  )
  (tgt_encoders): RNNEncoder(
    (embed): Embedding(10000, 128)
    (weight_layer): Linear(in_features=128, out_features=1, bias=False)
    (rnn): LSTM(128, 64, num_layers=2, batch_first=True, dropout=0.2, bidirectional=True)
  )
) (train.py:223, single_main())
[2021-04-20 03:39:26]    INFO >> model birnn, criterion SearchSoftmaxCriterion (train.py:224, single_main())
[2021-04-20 03:39:26]    INFO >> num. model params: 10351488 (num. trained: 10351488) (train.py:227, single_main())
[2021-04-20 03:39:28]    INFO >> training on 1 GPUs (train.py:233, single_main())
…
