…
[2021-04-20 18:12:52]    INFO >> single GPU training... (train.py:333, cli_main())
[2021-04-20 18:12:52]    INFO >> loaded 12982 examples from: ['/data/yanghe/ncc_data/codexglue/code_to_text/retrieval/data-mmap/all/valid.php.code_tokens'] (hybrid_retrieval.py:54, load_tokens_dataset())
[2021-04-20 18:12:52]    INFO >> loaded 12982 examples from: ['/data/yanghe/ncc_data/codexglue/code_to_text/retrieval/data-mmap/all/valid.php.docstring_tokens'] (hybrid_retrieval.py:55, load_tokens_dataset())
[2021-04-20 18:12:53]    INFO >> SelfAttn(
  (src_encoders): ModuleDict(
    (php): SelfAttnEncoder(
      (embed): Embedding(10000, 128, padding_idx=0)
      (type_embed): Embedding(1, 128)
      (embed_layer_norm): LayerNorm((128,), eps=1e-08, elementwise_affine=True)
      (layers): ModuleList(
        (0): TransformerEncoderLayer(
          (self_attn): MultiheadAttention(
            (k_proj): Linear(in_features=128, out_features=128, bias=True)
            (v_proj): Linear(in_features=128, out_features=128, bias=True)
            (q_proj): Linear(in_features=128, out_features=128, bias=True)
            (out_proj): Linear(in_features=128, out_features=128, bias=True)
          )
          (self_attn_layer_norm): LayerNorm((128,), eps=1e-08, elementwise_affine=True)
          (fc1): Linear(in_features=128, out_features=512, bias=True)
          (fc2): Linear(in_features=512, out_features=128, bias=True)
          (ff_layer_norm): LayerNorm((128,), eps=1e-08, elementwise_affine=True)
        )
        (1): TransformerEncoderLayer(
          (self_attn): MultiheadAttention(
            (k_proj): Linear(in_features=128, out_features=128, bias=True)
            (v_proj): Linear(in_features=128, out_features=128, bias=True)
            (q_proj): Linear(in_features=128, out_features=128, bias=True)
            (out_proj): Linear(in_features=128, out_features=128, bias=True)
          )
          (self_attn_layer_norm): LayerNorm((128,), eps=1e-08, elementwise_affine=True)
          (fc1): Linear(in_features=128, out_features=512, bias=True)
          (fc2): Linear(in_features=512, out_features=128, bias=True)
          (ff_layer_norm): LayerNorm((128,), eps=1e-08, elementwise_affine=True)
        )
        (2): TransformerEncoderLayer(
          (self_attn): MultiheadAttention(
            (k_proj): Linear(in_features=128, out_features=128, bias=True)
            (v_proj): Linear(in_features=128, out_features=128, bias=True)
            (q_proj): Linear(in_features=128, out_features=128, bias=True)
            (out_proj): Linear(in_features=128, out_features=128, bias=True)
          )
          (self_attn_layer_norm): LayerNorm((128,), eps=1e-08, elementwise_affine=True)
          (fc1): Linear(in_features=128, out_features=512, bias=True)
          (fc2): Linear(in_features=512, out_features=128, bias=True)
          (ff_layer_norm): LayerNorm((128,), eps=1e-08, elementwise_affine=True)
        )
      )
      (weight_layer): Linear(in_features=128, out_features=1, bias=False)
    )
  )
  (tgt_encoders): SelfAttnEncoder(
    (embed): Embedding(10000, 128, padding_idx=0)
    (type_embed): Embedding(1, 128)
    (embed_layer_norm): LayerNorm((128,), eps=1e-08, elementwise_affine=True)
    (layers): ModuleList(
      (0): TransformerEncoderLayer(
        (self_attn): MultiheadAttention(
          (k_proj): Linear(in_features=128, out_features=128, bias=True)
          (v_proj): Linear(in_features=128, out_features=128, bias=True)
          (q_proj): Linear(in_features=128, out_features=128, bias=True)
          (out_proj): Linear(in_features=128, out_features=128, bias=True)
        )
        (self_attn_layer_norm): LayerNorm((128,), eps=1e-08, elementwise_affine=True)
        (fc1): Linear(in_features=128, out_features=512, bias=True)
        (fc2): Linear(in_features=512, out_features=128, bias=True)
        (ff_layer_norm): LayerNorm((128,), eps=1e-08, elementwise_affine=True)
      )
      (1): TransformerEncoderLayer(
        (self_attn): MultiheadAttention(
          (k_proj): Linear(in_features=128, out_features=128, bias=True)
          (v_proj): Linear(in_features=128, out_features=128, bias=True)
          (q_proj): Linear(in_features=128, out_features=128, bias=True)
          (out_proj): Linear(in_features=128, out_features=128, bias=True)
        )
        (self_attn_layer_norm): LayerNorm((128,), eps=1e-08, elementwise_affine=True)
        (fc1): Linear(in_features=128, out_features=512, bias=True)
        (fc2): Linear(in_features=512, out_features=128, bias=True)
        (ff_layer_norm): LayerNorm((128,), eps=1e-08, elementwise_affine=True)
      )
      (2): TransformerEncoderLayer(
        (self_attn): MultiheadAttention(
          (k_proj): Linear(in_features=128, out_features=128, bias=True)
          (v_proj): Linear(in_features=128, out_features=128, bias=True)
          (q_proj): Linear(in_features=128, out_features=128, bias=True)
          (out_proj): Linear(in_features=128, out_features=128, bias=True)
        )
        (self_attn_layer_norm): LayerNorm((128,), eps=1e-08, elementwise_affine=True)
        (fc1): Linear(in_features=128, out_features=512, bias=True)
        (fc2): Linear(in_features=512, out_features=128, bias=True)
        (ff_layer_norm): LayerNorm((128,), eps=1e-08, elementwise_affine=True)
      )
    )
    (weight_layer): Linear(in_features=128, out_features=1, bias=False)
  )
) (train.py:223, single_main())
[2021-04-20 18:12:53]    INFO >> model self_attn, criterion SearchSoftmaxCriterion (train.py:224, single_main())
[2021-04-20 18:12:53]    INFO >> num. model params: 3780096 (num. trained: 3780096) (train.py:227, single_main())
[2021-04-20 18:12:55]    INFO >> training on 1 GPUs (train.py:233, single_main())
[2021-04-20 18:12:55]    INFO >> max tokens per GPU = None and max sentences per GPU = 450 (train.py:236, single_main())
…
